Final Exam/Paper 1/results/model.pth (torch, 89871 bytes, 8 tensors)

conv1.weight f4 [10, 1, 5, 5]
00000000: 30d7 86bd 660b a03e b3e4 2f3e 0a6a 803e
00000010: 3e62 663e e115 153e 219a 883e b9fb 573e
00000020: 68e6 4c3e a519 463d 1245 4dbd 68d1 3cbd
00000030: d4b7 4c3b 81a5 89bd 10ef c23d 99f5 84bd
00000040: 394e 70be 90b1 a2be 4b1e 7bbe 68e0 6ebe
00000050: b1dc 0dbe 8aa5 1cbe 5491 f5bd f5e9 cfbd
00000060: f238 78be 101f 4c3e 006d a13e 771d b73e
00000070: b94c 323e d8f3 3abe 035a 7abe f7b8 a8bc
00000080: 2b52 c63e 5a43 9c3e 3588 a83e 8354 a8be
00000090: c9bb 193c 845b 9abc 8a1a a53e 8362 923e
000000a0: 9e92 cabe 9de4 f3bd 8784 6abe 6079 cbbd
000000b0: 88c1 683d c22d 77be 035c b6be 475d 92be
000000c0: 5909 20be 7c10 91bd 8359 ac3e 436b d43e
000000d0: 1838 233e 4874 00be 6e63 e83d ea5f 953c
000000e0: e837 25bd bf19 803e 9614 2c3e 89eb 453e
000000f0: d8d6 41be 4916 cbbb 3ebe 063e a35c f63d
00000100: d9f9 28be 0ae0 14be 0195 463e 4ba7 8b3d
00000110: 0b04 fe3d 589d d6bd 5a50 e93c b652 d73d
00000120: be2c da3d 6d55 553c 372a b4be 0466 ef3d
00000130: 2f22 3dbe c7f6 61be 885f b3bd b7bc cebd
00000140: 87ae 593e f38e a0bd 9ecc 74be 58cf a03d
00000150: 6415 60bd b2ba 7b3e e884 3b3e ef2b 08be
00000160: f566 4d3d 2e68 ca3d 755c 9abc 06da 243d
00000170: fd31 0e3e cc88 d33d b307 65bc 9823 be3d
00000180: 5193 af3e 518e 383d 0342 353e e377 343e
00000190: 7c87 3bbe 9cfd 5ebe b494 163e beed 473d
000001a0: e156 323e 53ee 9b3d bc00 2c3e cc40 9e3e
000001b0: 95a8 a93e c2ce b9bd 464e c43d 5cd1 313e
000001c0: f73e 1c3e dc13 333e d8b8 04be 4127 1ebe
000001d0: 01bd 69be 926f bdbd 7b0c 6f3e ce0c 3cbd
000001e0: 9cb0 b1bd 8599 a9be d326 9fbe 019b 94bc
000001f0: 18d3 493e 2a54 8e3e 1f52 c63c feb0 133e
00000200: 097d 5f3e d907 d63d 7321 353e 58d7 813e
00000210: bd40 3e3e d86e 883d d48b 46be 30fb 59be
00000220: 8b91 1ebe dc53 7fbd cd95 08be 3512 b83d
00000230: f714 3b3d ca24 d0bd ae11 c13d b012 233e
00000240: ebb2 963e 1fab 483e 768d e8bc 12a7 783e
00000250: abdd 123d dd40 2a3d bab0 b1be 92f6 a7be
00000260: 4674 5bbe 823f 843b 7f53 a33e 0767 c6be
00000270: 0167 8fbe df58 8f3d 5f8e 703e 6950 bf3e
00000280: efee d3be 2aa7 5cbd b25b 103d 77d3 9d3e
00000290: c653 0b3e 7092 a6be 1098 86bd cd07 8b3e
000002a0: 023f a63e 0afe 6f3e d785 923d 6d97 463e
000002b0: 119b 783e fa84 043e bceb 85bd 3c66 b23d
000002c0: 10d7 cebd 14c2 b2bd 5e8f a3be 4f2c 5ebe
000002d0: c068 babd b4fc 873d 1edd b5be 2713 d7be
000002e0: 6b89 8ebe b6e5 f0bc 3202 f83c e845 a3bd
000002f0: 24eb f8bd b42e 893b 1956 6e3e c0b2 87bd
00000300: 02b9 a93e 960a dc3e a85a dd3e 8b6b 4fbd
00000310: 8c4b 613e a377 0c3e 5566 d73e d6e6 473d
00000320: 8791 8a3e 4470 163e f5d8 32bd ce4e 4fbe
00000330: 504c 49be 7291 923e 9940 5b3e 8304 13bc
00000340: 8897 efbe 7ca4 11be e6b5 ac3e 332a b93e
00000350: 0735 833d 2c0d c9be de4a a0be a744 aa3e
00000360: 99c0 6d3d e64a 603e 2d24 91be 89a6 93be
00000370: 56cf 573e 94d2 133d 9ef5 e7bb cecd 4b3d
00000380: e33b 273d b34a 0c3e cea5 dabc a11b 5abd
00000390: 1421 a63e 723e b53d 6429 5dbe 2a48 bd3b
000003a0: ec56 06be 5767 223e 1a83 763e a561 9cbe
000003b0: 04cf abbe 1488 46be 6c21 b0bd 66b1 01bd
000003c0: 2d41 19be d443 4abe dedb c8be 79f1 abbe
000003d0: 5526 99be 42ff 843e de01 373e de43 6abd
000003e0: 3528 86bd f84d 99bd
-0.065840125 0.31258696 0.17177086 0.250809 0.22498414 0.14559127 0.2668009 0.21092118
0.20009768 0.0483643 -0.0501147 -0.046098143 0.00312375 -0.067210205 0.09518254 -0.064921565
-0.2346734 -0.31776094 -0.24523275 -0.23327792 -0.13853718 -0.15297523 -0.1199061 -0.10152046
-0.24240473 0.19933724 0.31528473 0.35764667 0.1741208 -0.18257082 -0.24448399 -0.02059601
0.38734564 0.30520135 0.32916418 -0.32876977 0.00938315 -0.018842466 0.3224681 0.28590783
-0.39564985 -0.11908839 -0.22902118 -0.0993526 0.05682519 -0.24138549 -0.35617074 -0.2858679
-0.15628566 -0.07083222 0.33662042 0.41488084 0.15939367 -0.12544358 0.1134709 0.018234212
-0.04033652 0.25019643 0.16804728 0.19328131 -0.18929613 -0.006197725 0.13158509 0.12029388
-0.1650156 -0.14538589 0.19392778 0.06819018 0.12403115 -0.1047923 0.028480697 0.10513823
0.10653065 0.013020855 -0.35188457 0.1168938 -0.18470071 -0.22066794 -0.087584555 -0.10094588
0.21257983 -0.078397654 -0.2390618 0.07852048 -0.0547079 0.24582937 0.18312418 -0.1329801
0.050147016 0.09883152 -0.018842915 0.040246986 0.13886257 0.10328826 -0.013978886 0.09284133
0.3429208 0.0450576 0.17700963 0.17623858 -0.18313402 -0.21776432 0.14705163 0.048810713
0.17415954 0.07613816 0.16797155 0.3090881 0.3313643 -0.09072639 0.09585242 0.1736502
0.15258394 0.17488045 -0.12961137 -0.15444662 -0.22826006 -0.09249796 0.23344605 -0.04591065
-0.08676264 -0.3312494 -0.31084308 -0.018140318 0.19709432 0.27798587 0.02420908 0.14422986
0.21825041 0.104507156 0.17688541 0.25359607 0.18579383 0.06661767 -0.19389278 -0.21287227
-0.15485208 -0.062335834 -0.13338394 0.08987848 0.04567429 -0.10163267 0.094272 0.15925097
0.2943338 0.19596528 -0.028387766 0.24282482 0.03585593 0.041565765 -0.34705144 -0.32805306
-0.21431074 0.004035891 0.3189964 -0.3875048 -0.28008273 0.06999373 0.2349181 0.37366036
-0.4139323 -0.053870358 0.035243697 0.30825397 0.13606176 -0.32533598 -0.06571972 0.2715439
0.32469946 0.23436752 0.07154434 0.19393702 0.24277903 0.12941352 -0.065391034 0.08710906
-0.10099614 -0.08728424 -0.31945318 -0.2169659 -0.09102011 0.06639996 -0.35520262 -0.420068
-0.27839217 -0.02940641 0.030274484 -0.07972318 -0.121542245 0.0041864756 0.23275031 -0.06625891
0.33148962 0.42976826 0.43233228 -0.05063967 0.22001475 0.13717513 0.4207026 0.048804127
0.27064154 0.14691263 -0.043663938 -0.20244905 -0.19658017 0.2862659 0.21411361 -0.008973244
-0.46795297 -0.14222902 0.33732527 0.36165008 0.064065985 -0.39267862 -0.3130712 0.33255503
0.058045004 0.21903571 -0.28347912 -0.28837994 0.21075186 0.036089495 -0.0070788404 0.049756818
0.040828597 0.1370037 -0.02669039 -0.053249005 0.32447112 0.08849801 -0.2159782 0.005776425
-0.13119096 0.15859734 0.24073449 -0.30543247 -0.33556378 -0.19387847 -0.08600125 -0.03166332
-0.14966269 -0.19752437 -0.39230245 -0.33582667 -0.29912058 0.25975996 0.17871806 -0.05719363
-0.06550638 -0.074855745

conv1.bias f4 [10]
00000000: 2664 afbc 7132 b5bc 3d8d 2f3e e889 db3d
00000010: b365 e83d 28e9 f73b 0120 e53d d345 c53d
00000020: e5a2 e2bd 9fc5 f53d
-0.02141006 -0.022118779 0.17143722 0.10719663 0.113475226 0.007565636 0.11187745 0.096324585
-0.11066226 0.12000584

conv2.weight f4 [20, 10, 5, 5]
00000000: e4d7 e7ba f4a2 99bd 2ddb 9b3c b209 08bd
00000010: 57a6 4f3d b397 0bbd f42f 9dbc cdd1 79bc
00000020: 9611 d3bc 7eb7 31bc d2e8 cabc 48cc a1bd
00000030: 518f c5bd 0f4a 93bb 7178 17bd ff1e 2bbd
00000040: ed85 6ebd dd5d 58bc 93eb 8bbc f7b1 35bd
00000050: 9368 95bd 772f 8dbd 0ed2 cfbd 1d79 a939
00000060: ee25 41bd 1be7 373d 195c 8bbc 207b 45bd
00000070: 7bf0 8f3d 4872 933d da78 483d cbbf b0bd
00000080: cccb edbd cacb b2bd e331 0dbe c190 74bd
00000090: 7859 a8bd f457 d3bd c315 76bd 1775 9ebd
000000a0: ac30 e2bd d3c2 04be f87c d5bd 157c 10bd
000000b0: e51a d3bd 694b c6bd cbdd f2bd 30af 87bd
000000c0: cb07 e6bc f994 30bb d590 c23d df76 47bd
000000d0: ca78 ddbc dd4d 603d 5f63 a03d e72b 793d
000000e0: d651 56bd 2c40 29bd 3454 83bc dfd0 b03b
000000f0: c7fd 013d b8fe b6bd eeb1 e6bb f30a 8a3d
00000100: a241 a63b e4d9 51bd 628e edba 6139 983b
00000110: 0365 3b3d 4e5f d6bd 27df 1bbd d1c8 b6bd
00000120: 0215 c3bd fef4 17bd 600f 9bbc e7a5 193b
00000130: f87f 52bd ee7c 90bd 0b4f a2bd 1280 743d
00000140: 4934 23bd 508d 36bd f14b adbc aa5e e1bc
00000150: 64a4 2bbd 154f 87bd d758 ba3c d304 053c
00000160: 357a c0bc d38f dcbd 28f3 a2bb c6ac 383c
00000170: a756 0e3d 8e0a 9cbb 3b7f 42bc b18c 67bc
00000180: f07f 88bd a0b4 e1bd 0c99 39bc f193 05bb
00000190: e58a 123d b1a0 5dbd af19 89bd 318b 3dbd
000001a0: cb16 b7bc bd45 a9bc 789f 06be 8c30 48bd
000001b0: 2b8c a2bd 260a 0fbd 2cea 0fbc a616 bfbd
000001c0: ab41 3ebd db62 793d abce 843d f8cc 9fbd
000001d0: e733 9ebd d20d 1fbd 8538 e13d 687f 9bbd
000001e0: d44b 0fbe 2d89 c0bc 4226 183c e889 b73c
000001f0: 805d 72bd 762c babc eb13 1fbd f741 eb3c
00000200: 2206 683c 876d 6e3b 737e 0d3c 752a 8bbd
00000210: e0ca 61bc 979f 21bd 934d 1b3d a9a9 32bd
00000220: 23b0 00be 6713 023b 22af c7bc c127 99bd
00000230: 0312 b3bd 40a0 1fbe 1ad6 d4bd e7ff 1bbd
00000240: 3be3 d7bb 0d1a 8bbd 75ee b4bd 2ed3 4a3c
00000250: 89a2 3b3d d1a1 d0bd 702c 4d3d e23d 453d
00000260: c4b6 533c 4e1a 90bc f40d b2bd a858 263d
00000270: b5ff 3dbd c51e be3d 3716 9d3d 7c9a 483e
00000280: 0050 893d ef9e f63d e169 803d 03d2 e33d
00000290: be12 053e d917 db3c ad6a 0b3d 4dea b33d
000002a0: 4f7f d53d 708d c23c 5117 c03c 4012 8b3b
000002b0: 803d c73d bd53 8f3d f6ff 26be e0cd 0d3c
000002c0: f393 cabd dc19 e13c 857e ebbd c6ed c3bb
000002d0: 03ce 85bc 1826 cc3c 77b2 a8bc 7bae bb3d
000002e0: 5ca8 9e3c ae7f 9abd 236e 223c 7dfc cc3c
000002f0: 258e 7e3d fe25 aabd a0df 913c ff7d c4b9
00000300: efda 96bd 22ae ccbd b1ef 4a3c d82e 5fbd
00000310: 9065 2cbd c44d 32be 0cf8 55bd e944 503d
00000320: 129f c13d 91bb ff3d 1cc8 49bd 7049 34bd
00000330: ef1e 383c af6e 4a3d d5b9 713d 4e50 91bd
00000340: 64a1 b13c ff6e a93d b9a1 283e a766 9c3d
00000350: 974d fdbd d01d 6a3d 4cd4 6c3d 646e 6c3d
00000360: f717 ed3c ec72 2cbc 4da5 bb3d 7e9e fd3d
00000370: 6cf8 243e fde3 4cbb 212f d23c 23a0 143e
00000380: a9b5 f43d 90ed 9f3d 3024 663d c070 1d3c
00000390: 849f b03d e328 5dbc 1d3b 643d af0e 123d
000003a0: 80bf ab3c 06e8 19bd 25e2 d0bd 8adb 1d3d
000003b0: dd3e 7abd 0c1a 61bd 6dc1 b4bd b877 8cbd
000003c0: 7051 f6bc 6b1c 0ebd 7e43 60bd 64cb d9bd
000003d0: b62e 573d 9bd4 e9bc f9ee 28bd b529 6cba
000003e0: 08b6 17ba 5a88 b53d 1bc6 60bb 01d8 8bbd
000003f0: fbec 8dbd 9b1c 77bd 46a9 13bd 66c7 b8bd
-0.0017688242 -0.07501784 0.01902541 -0.03321237 0.050695743 -0.03408022 -0.019187905 -0.015247774
-0.025765222 -0.010846971 -0.02476922 -0.07900292 -0.09646476 -0.0044949125 -0.036980096 -0.041777607
-0.05823319 -0.0132059725 -0.017080104 -0.044359174 -0.072953366 -0.06893819 -0.101474866 0.00032324428
-0.047155313 0.044898134 -0.017011689 -0.048213124 0.0702829 0.07199532 0.048943378 -0.086303316
-0.11611137 -0.08730276 -0.13788562 -0.05970836 -0.0822019 -0.1031951 -0.060079347 -0.07737177
-0.1104444 -0.12964945 -0.104242265 -0.035274584 -0.10307864 -0.09682352 -0.1185871 -0.06625211
-0.028079888 -0.0026944263 0.09500281 -0.04869735 -0.027035136 0.054761756 0.078314535 0.060832884
-0.05232414 -0.041320965 -0.016031362 0.005395993 0.03173616 -0.089353025 -0.007040254 0.0674037
0.005073742 -0.051233187 -0.0018124098 0.004645512 0.04575063 -0.10467397 -0.03805461 -0.089250214
-0.09525491 -0.037098877 -0.01892823 0.0023444833 -0.05139157 -0.070550784 -0.079252325 0.05969245
-0.039844785 -0.04456836 -0.021154376 -0.02751096 -0.041904822 -0.066068806 0.02274744 0.008118826
-0.023495773 -0.1076962 -0.004972834 0.011271661 0.034750607 -0.0047620004 -0.011871154 -0.014132665
-0.06665027 -0.110207796 -0.011327993 -0.002038237 0.03577699 -0.054108325 -0.06694352 -0.04627532
-0.022349736 -0.020663137 -0.1314677 -0.048874423 -0.07936891 -0.034921788 -0.008783858 -0.09330492
-0.046449345 0.06088529 0.06484731 -0.078027666 -0.07724743 -0.03883154 0.10997108 -0.0759266
-0.1399377 -0.02350291 0.009286465 0.022404626 -0.0591712 -0.022726279 -0.038837355 0.028717978
0.014161618 0.0036381201 0.008636105 -0.067952074 -0.013781279 -0.039458837 0.037915777 -0.04361883
-0.12567191 0.001984799 -0.024375502 -0.074782856 -0.0874367 -0.15588474 -0.10392399 -0.038085844
-0.0065883673 -0.06792078 -0.088345446 0.012379451 0.045809302 -0.10187114 0.050091207 0.04815472
0.012921993 -0.017590668 -0.086940676 0.040611893 -0.04638644 0.092832126 0.07670253 0.19590181
0.06704712 0.12042033 0.06270195 0.11124041 0.12995431 0.02674477 0.03403728 0.08784924
0.10424673 0.023749083 0.023448618 0.004244119 0.09728527 0.06998394 -0.16308579 0.008655041
-0.098915 0.027478151 -0.11498741 -0.0059792725 -0.016333586 0.024920508 -0.020592911 0.09164139
0.01936739 -0.07543884 0.009913954 0.02502274 0.06214728 -0.08308028 0.017806828 -0.00037477908
-0.07365977 -0.09994151 0.012386248 -0.054488033 -0.042089045 -0.17412478 -0.05223851 0.050846968
0.094541684 0.12486947 -0.049263105 -0.044015348 0.011237844 0.049421962 0.059015114 -0.07095395
0.021683402 0.08273124 0.16467942 0.07636767 -0.12368315 0.057157338 0.05781965 0.057722464
0.028942091 -0.010525446 0.09162388 0.123837456 0.1611039 -0.0031263821 0.025657238 0.14514212
0.119487114 0.07808983 0.056186855 0.009609401 0.08624175 -0.013498518 0.055720437 0.035658535
0.020965338 -0.03757479 -0.10199384 0.038539447 -0.061095107 -0.05495648 -0.088259555 -0.06858772
-0.03006813 -0.03469507 -0.054751866 -0.10634497 0.05253478 -0.028543761 -0.041243527 -0.00090089004
-0.00057873176 0.088638976 -0.0034297768 -0.06828309 -0.06929966 -0.060330015 -0.036050104 -0.09022407

conv2.bias f4 [20]
00000000: 0d9a 5d3d 1982 29bd 8084 13bb 9c65 e3bc
00000010: 9bd4 6abd 4e30 9dbc 121e f43c be00 c4bc
00000020: f502 89bd 42db b23c c78c 64bd 97db 87bd
00000030: 1238 1dbd 8ee1 cf3a 22ce 9bbd 69f8 85bc
00000040: 346d 2abd dc98 0dbd 8042 783c c382 163c
0.054101992 -0.041383836 -0.0022509396 -0.027758412 -0.057331663 -0.019188073 0.029799495 -0.023926135
-0.06690017 0.021833066 -0.05579832 -0.0663368 -0.03838355 0.0015860067 -0.07607676 -0.016353803
-0.04160805 -0.034569606 0.015152574 0.009186449

fc1.weight f4 [50, 320]
00000000: c3a6 6cbb cf7d c6bc 9529 e93d 60cd 6a3d
00000010: 8f2d 7e39 e451 473d e1d8 d3ba 1cbe 35bc
00000020: 5d4f 72bd 71f2 b63b afeb 34bd 7448 3dbd
00000030: 35a5 cb3c 30da a33d 771c 6b3d f85e 593d
00000040: f68f 13bd 3b4d 17bd 0483 df3c 6282 bd3c
00000050: 941e c7bc f318 8ebb ff70 843d 099c cb3d
00000060: eebd 233c a33a ed3b e5da d83c 5f05 273d
00000070: 46f7 26be 1438 98bd f42f 263c 5b79 553b
00000080: fb5f 9739 989e c3bc a44d 8cbc 8fb2 283d
00000090: 3c54 a63c d2b1 9abb 2ac6 38bd d034 25bd
000000a0: 6e36 d9bc fe40 36bd 9e40 663d fe12 82bc
000000b0: 73ce 0cbd f4c1 9a3d 71e4 d83d 22d3 f53c
000000c0: d70d edbc ad9a d83c c5e2 b3bc 49da 92bc
000000d0: db4a efbc 227c 08bd e2a2 31bd 0e56 3bbd
000000e0: fc09 ecbd 44d6 813a 6485 9f3c 30ab 1cbd
000000f0: b163 f13d fc3c 253e 6b5c 223d f108 923c
00000100: 65f9 37bd 3f3e 12bd f84b cbbb 9780 e2ba
00000110: 1c4a 0abd 3558 9c3c dfd0 863c e24e 15bd
00000120: dbfc f5bc 38dc ff3c fb8b aa3b 910e 7ebd
00000130: a5a2 2b3d 5eb1 bc3d 577c c33c 9690 7fbd
00000140: b593 e4bc ce59 d73c 3a88 d1bb fdef 7e3d
00000150: 8977 a03c 7dbd 15bc 5b3f d33b eff1 33bc
00000160: 4450 5f3d aeb3 303d dc86 f13c 5b50 aabc
00000170: 06b9 3c3d acb2 ad3b 3a65 02bd ace8 b7bd
00000180: 9b74 cd3c 001e a5bc 5ea5 ae3c 91dc 933d
00000190: 72a4 50bd 60f2 45bd 5e8b 4d3d 0ece 2a3d
000001a0: 8a52 1a3d ffe0 ca3c 05d1 6abd 727d bb39
000001b0: f490 943d 3dad 413d bc58 8b3d 52f0 fb3c
000001c0: 7a47 f73c cfcb fd3c 8d3f 3a3d 3157 e73d
000001d0: 3224 093d 56ce b43d c395 ab3c 9cdc 8e3b
000001e0: 4b8c 17bc 5244 d33c b13d ee3c 2a2a 93bc
000001f0: 3b1a b0bd 68a7 7dbd 6d1c d63b b114 80bc
00000200: afe7 3e3d 7231 353d b95f f83c 6755 ec3c
00000210: 49ab 0c3d 0e5b 34bd 914e c3bc 4049 003d
00000220: f3f3 543c 7013 3a3d c139 d5bb bc5a bebb
00000230: fd43 67bd 0eca 1dbc 61b7 2d3d 9e73 703d
00000240: 4afb 0a3d 9ed2 96bb d127 633d 1e10 d8bc
00000250: 6ba0 bebc 0937 7dbc ec84 df3c 00ef 9fbc
00000260: 9095 aabb 0069 08bc 6b84 a6bb 4c46 86bc
00000270: 8c61 8d3c 87db da3c 4ecc 69bd 775e c0bc
00000280: 6c52 ddbc 410c 013c 2b91 1b3d c0ed 12bd
00000290: e59f 1abd e3b1 143d c1d3 c8bc c75d f03c
000002a0: 6170 f13d e21e 523d 60a6 053c f29f ccbc
000002b0: 5a50 963d c3e6 2bbd f813 26bb 12d4 27bd
000002c0: 8d06 013d 9a16 1f3d 159a 983d 3707 bc3b
000002d0: 40c0 7e3d 6517 2bbb e9c3 6e3d d272 8ebb
000002e0: 445f 6d3c 889e 3f3d e3c6 ecbc d715 aabd
000002f0: eafd 6ebc 2aed c1bc c971 1bbd ba08 b6bd
00000300: 8aab 263d 7f5a dabb fdef 823c 04ac 08bc
00000310: bb5c 9ebc 4a73 3ebd 02c6 a63c 204b e0bc
00000320: b816 153d 7f0e 9b3c d48f 2d3d df7b 85ba
00000330: c523 94bd 1697 d3bc 7967 4ebc 9fb7 0e3b
00000340: f981 d43d 4020 883c 1db0 f33c 30cf 813b
00000350: 9712 21bd 184e 19bd a922 48bd a0e9 d7bc
00000360: 7802 d5b9 a763 d23c 30c0 fd3b e707 2f3d
00000370: bccc fa3d 4a4d ee3c 8b08 4dbd 3027 84bd
00000380: cdab 193d 1a6e e9bb d4cb 193d 2172 6abb
00000390: ebf6 62bd 5837 b73c 8d9d 213d 4d4c 04bc
000003a0: d032 33bd 0337 4e3c c80a 683b 93bc 3bbc
000003b0: 5c61 023e b61e 323d 076b 83bd 4acf 25bd
000003c0: 85de edbb 5b62 463d 99a3 35bb 8376 713d
000003d0: 8938 acbd 7ca8 adbc 3454 a03c abe3 17bd
000003e0: 9879 33bd a155 04bd 37ca 7eba ce40 17bd
000003f0: 3f9a a33c d28a 1d3d cd9d 9cbd 81e9 86bd
-0.003611014 -0.024229912 0.11384884 0.057324767 0.000242403 0.04866208 -0.0016162657 -0.011092689
-0.059157718 0.0055831005 -0.044170078 -0.046211675 0.02485905 0.080006 0.057400193 0.053069085
-0.036025964 -0.036938887 0.027284153 0.02313346 -0.024306573 -0.0043364703 0.06466865 0.09941871
0.009994013 0.007239656 0.026471565 0.040776607 -0.16305265 -0.07432571 0.010143269 0.0032573554
0.00028872475 -0.023879334 -0.017126866 0.04118591 0.020303838 -0.004720905 -0.04511086 -0.04033357
-0.026515212 -0.044495575 0.056213968 -0.015878197 -0.034376573 0.07556525 0.10590447 0.030007903
-0.028937263 0.026440943 -0.021958718 -0.017926352 -0.029210499 -0.033321507 -0.043368228 -0.045736365
-0.11525342 0.0009905775 0.019472785 -0.038249195 0.11786593 0.16136545 0.039638918 0.01782653
-0.044915576 -0.035703894 -0.0062041245 -0.0017280754 -0.033762082 0.01908503 0.01645702 -0.03645218
-0.030027797 0.031232938 0.0052046753 -0.06202561 0.041903157 0.092135176 0.023863 -0.062393747
-0.027902463 0.02628794 -0.0063944133 0.06224059 0.019588249 -0.009139416 0.0064467615 -0.010982974
0.054519907 0.043140106 0.029483251 -0.02079027 0.04607489 0.0053008404 -0.03183482 -0.089799255
0.025080016 -0.020155907 0.021319088 0.07219804 -0.050938077 -0.04832685 0.05018174 0.041700415
0.03767637 0.02476549 -0.057328243 0.00035760883 0.0725421 0.047284354 0.06804034 0.030754242
0.03018545 0.030980973 0.045470763 0.11295927 0.033481784 0.08828418 0.020945435 0.004359795
-0.009249757 0.025789414 0.029082151 -0.017964441 -0.08598753 -0.06192723 0.0065341503 -0.015634866
0.04660767 0.044236608 0.030319082 0.028849317 0.034343038 -0.04403215 -0.023841174 0.031319857
0.012997615 0.045428693 -0.006507129 -0.005809156 -0.056461323 -0.009630693 0.042411212 0.05870401
0.033931054 -0.0046027442 0.055457894 -0.026374873 -0.023269853 -0.015455016 0.027285062 -0.019523144
-0.0052058175 -0.008325815 -0.0050817034 -0.016390942 0.017258428 0.026716007 -0.057079606 -0.023482544
-0.02701684 0.007876457 0.03798024 -0.035871267 -0.037750144 0.03630246 -0.024515035 0.029341592
0.11789013 0.051298983 0.008157343 -0.024978612 0.073395446 -0.04196812 -0.0025341492 -0.04097373
0.031500388 0.038839914 0.07451264 0.0057381648 0.062195063 -0.0026106474 0.058292303 -0.0043471837
0.014488045 0.046782047 -0.02890343 -0.08304947 -0.014586905 -0.023672659 -0.03795031 -0.08888383
0.040690936 -0.00666362 0.015983576 -0.008341793 -0.019331327 -0.046496667 0.02035809 -0.027379572
0.03639862 0.01892781 0.042373493 -0.0010184011 -0.07233385 -0.02582888 -0.012597912 0.0021776927
0.10376353 0.01661694 0.029747063 0.0039614663 -0.03932437 -0.03742799 -0.04886118 -0.026356518
-0.00040628365 0.025682284 0.007743858 0.042732146 0.12246081 0.029089589 -0.050056975 -0.06452787
0.037517358 -0.007123721 0.0375479 -0.0035773593 -0.05541126 0.022365257 0.039456893 -0.008074832
-0.04374963 0.012586358 0.0035406817 -0.011458534 0.12732452 0.04348632 -0.06416898 -0.04048089
-0.0072591924 0.048433643 -0.002771592 0.058950912 -0.08409221 -0.021198504 0.019571401 -0.037082355
-0.043817133 -0.032308225 -0.00097194634 -0.036927037 0.019971011 0.038462467 -0.076472856 -0.06587506

fc1.bias f4 [50]
00000000: 0acf 5f3d b59b 5f3d 2a4c 16bc ea39 87bc
00000010: 763c 423c ce73 19bc c037 883d 4f10 e63c
00000020: 76e8 6bbc f7b1 85bb 7804 373d 4b6b cebc
00000030: 54f8 c13d f3ba 013d 133d 953d f27d b7bc
00000040: d9de 183c e2d9 973d 08ed 433d 00f3 d03d
00000050: 6b28 ad3d bfc6 ae3c 8ed3 ea3c 1b7e c23c
00000060: e5ad e1bc 7dbe 953c 3069 c4ba 528d 633d
00000070: e833 8d3c 3ee2 2cbd 5dd4 b8bc f7e9 243d
00000080: 9ec0 6dba 2253 e6bb 608c 873d 88ee 223d
00000090: 1694 c7bb f273 b53d cf6b 7a3d 4900 5dbd
000000a0: e32c 0d3d ef26 703c 3f63 82bd d192 e23b
000000b0: a817 993d 3430 903c 5b7b a63d 3f32 493c
000000c0: 0622 46bc 4980 08bb
0.054640807 0.054591853 -0.009173432 -0.016507108 0.011855235 -0.009365989 0.066512585 0.028083948
-0.014398685 -0.004080053 0.044681996 -0.025197646 0.09471193 0.03167243 0.072870396 -0.022398923
0.009330475 0.07414605 0.047833472 0.102025986 0.08454975 0.021335004 0.02866533 0.023741772
-0.02754874 0.018279308 -0.0014984962 0.055554695 0.017236665 -0.04220795 -0.0225622 0.04026219
-0.0009069535 -0.007028953 0.06618571 0.039778262 -0.0060906513 0.088600054 0.06113797 -0.05395535
0.034466635 0.01465772 -0.06366586 0.0069144745 0.07475215 0.01760111 0.08128997 0.012280046
-0.012093073 -0.0020828417

fc2.weight f4 [10, 50]
00000000: 88ef 8ebe 07a0 55be 14d4 35be ce1c 46be
00000010: 76a6 cbbd 9e68 6b3d 5157 3bbd 70bc 2fbe
00000020: f7d7 033e 34b8 1b3e 5008 613d 6f96 d9bd
00000030: 2b35 5c3e b84c 963e ed10 1c3e bb7d d8bd
00000040: cbcc 403e 6972 85be fd75 20be 59c2 63be
00000050: b976 4abe 7a5e 6cbe fd53 3ebe daef 75be
00000060: 41a3 283e 8720 223d 3201 b0bd 4d84 09be
00000070: b47b 323e 6a7d 473d d7a9 3dbe 077b 4d3e
00000080: 6145 253e 0244 03bc bcd9 68bd 0f55 3dbe
00000090: 882a 13be 9318 3abe df4e c33d 9591 01be
000000a0: a7d9 143e 90d1 8a3e 5b30 29bd 14de 0bbe
000000b0: eb71 133e 8f39 2b3d c338 5b3e 2bf2 813e
000000c0: ff48 48be 1dc8 113e 337b bf3d ad9d 1d3e
000000d0: 0e36 5ebe 0e15 083e 420c b5bd 0b28 2abe
000000e0: db4c 163e 22c4 bf3d 87c7 6cbe 68b2 823b
000000f0: 1667 7c3e 4c20 7ebe 6e11 1d3e 9ba5 9ebd
00000100: 9a07 7dbe f858 bb3d 9a5f 35be 2edf 413e
00000110: c6cf 483e eee0 5a3e ef59 3b3e 3888 8dbe
00000120: fec5 9fbe 07b4 4e3e 4232 12bc bd89 c63e
00000130: b318 9a3e 6d53 cb3d f0ae 4dbe defe 26be
00000140: afbc 163e d5a9 d1bd e11e 36be 13c2 46be
00000150: 55ea 99bd 59cf 5b3e 75fa 113d 65fd 583e
00000160: d40a a53d 37ec 4ebe d396 483e 1700 d6bd
00000170: eaa5 fcbd 7bef 563e 589e 4dbe 7b3e 213d
00000180: 6d94 073e 8dc8 cebd 161c 9fbd 23fd 29be
00000190: 2bf0 3fbe 1232 d93d cbe7 0e3e 3a64 013e
000001a0: 470a 213e 5107 dc3d cedc 293e df5b 3d3e
000001b0: f820 f03d b141 333e 97bd 8d3d 42af 143e
000001c0: 0978 a13d 8bc6 f9bd 48b0 d7bd 8768 13be
000001d0: d9d6 12be 2744 233e d934 edbd dcd1 92be
000001e0: 3475 0dbe 2486 a6bd 8bbf 20be add6 7b3e
000001f0: 1cfb a4bd ef0e 463d 97fa 10be 6bc0 2abe
00000200: 8c0b 22bd f630 0bbe ec93 463e 2566 af3d
00000210: 4ca9 eabd e5e8 4cbe 127d 163e e782 f8bd
00000220: 3434 4b3e bd38 713e 5444 41be 3166 96bd
00000230: 5133 51bc 03b8 523e d863 173e 80ae 01bd
00000240: b903 b5bd 48c4 d53d b13e 133e e184 433e
00000250: 3d4d 023e 764a 183d 6f23 dc3d 03eb 15be
00000260: fb28 1b3e defe 1a3e e00b acbc f3fa 7b3d
00000270: 302f 30be 9ee2 4f3e b510 08be 1494 c3bd
00000280: 9d25 d6bc 1ddc 9cbd 34b9 46be 0ed3 7bbd
00000290: 2dea 8ebd 5c8b 433e df53 24bd 69c9 323e
000002a0: 7d15 2c3e 21ec febd 153c 37be a9bd 10be
000002b0: 2092 0d3e 9a3b f3bc f5e3 523e 6ee7 3ebe
000002c0: 0477 18be 1501 473e b1f6 75bd 21f0 2d3e
000002d0: c66c 2e3e 6cba 213e e7fe 2a3e 3487 9abd
000002e0: 752f 39be 4c9b 42be 225b 2c3e 54ab 593e
000002f0: 5af1 30be 7e85 7a3e 38f5 47bd 7234 42bd
00000300: cf76 c2bd e2fa fdbc 1fe4 3e3c d3b6 ea3d
00000310: c529 5abd a2db 87bd 9a5a 023e 0ed2 d13d
00000320: f222 413e ab8c cc3d a443 2e3e 34bd 08be
00000330: 38a1 093e b4ad acbe 2921 663e ea08 bb3d
00000340: 83b4 103e 5221 f9bc 141d 833e b00c 933e
00000350: b79c 11be 27ec 57bd ecfa 21be 0ae7 53be
00000360: b40c 88be 2e76 31be f7c8 7b3e 76f5 8c3d
00000370: 4ff1 483e ac4e 803e 045e 183d c3e2 a6bd
00000380: a692 edbd e7dc 8c3b 572f aebc 165e 203e
00000390: ad41 82be 7cda 52be 4035 dabd 937f 89be
000003a0: 3299 8ebd 2166 863e bbe8 933e 67bc 403e
000003b0: 9bf3 0fbe 4861 7bbd 704c cebd d0f3 bf3d
000003c0: da1e 46be 9e13 033e ea21 acbd 7cae 06be
000003d0: 06f6 6c3e 87c6 ecbc 4dde 8d3c 57b5 493d
000003e0: d07e 19be e9b1 90be a676 fc3d 0549 cd3d
000003f0: 4a58 f7bd b1c6 78be f6b4 153e e5c7 75be
-0.27917123 -0.20861827 -0.17756683 -0.19346926 -0.09943859 0.057472818 -0.04573757 -0.17161727
0.12875353 0.15206987 0.054939568 -0.10624396 0.21504657 0.29355407 0.15240832 -0.10570856
0.18828122 -0.2606385 -0.15670009 -0.22242106 -0.19771852 -0.23082915 -0.18586726 -0.24017277
0.16468526 0.0395818 -0.08593978 -0.13429375 0.17430001 0.04870359 -0.1852182 0.20066462
0.16139747 -0.00801182 -0.056848273 -0.18489479 -0.14371693 -0.18173437 0.09536528 -0.12653191
0.14536153 0.27113008 -0.04130588 -0.13658935 0.14398925 0.04180294 0.21408372 0.25380072
-0.19559096 0.14236493 0.0934967 0.1539218 -0.21700308 0.13289282 -0.088402286 -0.16616838
0.14677756 0.09363581 -0.23122989 0.003988553 0.24648699 -0.24817008 0.1533868 -0.077464305
-0.24709931 0.09147829 -0.1771225 0.18932793 0.1961051 0.21374866 0.18296026 -0.2764299
-0.31205744 0.20185862 -0.008923115 0.3877696 0.3009697 0.099280216 -0.20086265 -0.16308162
0.14720415 -0.10237471 -0.17785217 -0.19409971 -0.075153984 0.21465816 0.035639245 0.21190412
0.08058706 -0.20207296 0.19588785 -0.10449236 -0.12336333 0.20989792 -0.20079935 0.039366227
0.13240214 -0.10096846 -0.07769029 -0.1660047 -0.1874396 0.10605253 0.1395561 0.1263589
0.15726577 0.10743583 0.16588137 0.18492077 0.11725038 0.17505528 0.06920927 0.1451998
0.07884223 -0.12196072 -0.1053167 -0.14395343 -0.1433977 0.15943967 -0.115823455 -0.28675735
-0.1381424 -0.08131054 -0.15698068 0.24593611 -0.08055708 0.048354086 -0.14158092 -0.16674964
-0.039561793 -0.13592896 0.19392365 0.085644044 -0.11458072 -0.20010717 0.14696148 -0.12134343
0.19844133 0.235568 -0.18873721 -0.0734371 -0.012768582 0.20578007 0.14784181 -0.031660557
-0.08838601 0.10437828 0.14379384 0.19093658 0.12724777 0.037180386 0.10748946 -0.14640431
0.15152352 0.15136287 -0.021001756 0.06151862 -0.172055 0.20301291 -0.13287623 -0.09549728
-0.026140982 -0.07659171 -0.19406587 -0.061480574 -0.06978259 0.1909613 -0.04011905 0.17459644
0.16805072 -0.12447382 -0.17894013 -0.1413485 0.13825274 -0.029691506 0.20594771 -0.18642971
-0.14889151 0.19434007 -0.060049716 0.16986133 0.17033681 0.1579377 0.166988 -0.07545319
-0.1808451 -0.19004554 0.1683164 0.21256763 -0.17279568 0.24464986 -0.048817843 -0.047413297
-0.09495317 -0.03100342 0.011651068 0.11460652 -0.05326249 -0.066336885 0.12729874 0.10245143
0.18860987 0.09987768 0.1701799 -0.13353425 0.13440406 -0.33726275 0.22473587 0.091325596
0.1413136 -0.030411396 0.25608122 0.28720617 -0.14219938 -0.052715447 -0.15818375 -0.20693603
-0.26572192 -0.17330238 0.24588381 0.068827555 0.19623302 0.25060022 0.037199035 -0.0814872
-0.116002366 0.0042987945 -0.021262808 0.15660891 -0.25440732 -0.20591158 -0.10654688 -0.26855144
-0.069628134 0.26249793 0.28888497 0.1882187 -0.14057772 -0.06137207 -0.10073173 0.093726754
-0.19347706 0.12800452 -0.08404906 -0.13152498 0.23140725 -0.028903259 0.017317915 0.049245205
-0.14989781 -0.28260735 0.12327318 0.10023693 -0.12077387 -0.24294545 0.14619812 -0.24002035

fc2.bias f4 [10]
00000000: 92d3 1f3e 15e3 703e 1dbe 0dbe fb4f 56be
00000010: 7f77 08bd dfb6 ecbd bc3b 38bd e124 c4bc
00000020: a5e6 893e 0189 bbbc
0.15608051 0.23524125 -0.13842054 -0.20928948 -0.033317085 -0.115583174 -0.044978842 -0.023943366
0.2693378 -0.022892477
