Final Exam/Paper 1/results/model.pth (torch, 89871 bytes, 8 tensors)

conv1.weight f4 [10, 1, 5, 5]
00000000: 81c9 773e 336a c7bd 3860 e3bd 2c51 fdbd
00000010: db0b ca3c a57c 8a3e 46b5 dcbd 2feb 68be
00000020: e6bf cfbd 93fd 03bd 71cd 663e 21e6 47be
00000030: 22e3 1abc ace2 3cbd 7984 3ebe 7101 ccbc
00000040: 7d7a 7fbd 2734 6cbe 4740 25be 6f3e 283d
00000050: 7ea6 85bd 2306 0bbe 2ab3 c63c e036 30be
00000060: 2252 d23c 6e22 ff3d e6f8 88be 1ccd adbd
00000070: 12d1 87be b673 a3be ec61 16be 78df e2be
00000080: 3213 19bf 2421 60be 8bf0 a9be 7b7b a03d
00000090: b3df 2b3d 26cd 15bc 6921 483c 6dd7 0e3e
000000a0: a720 973e 2f02 cd3e 2305 903e 4827 c53e
000000b0: b86f 963e 537f 8c3e de9c 383e 9a66 c73e
000000c0: 61d3 073d 539f 4c3e e132 163e 8392 363e
000000d0: e450 1a3e 636f 9c3e 3696 33bd e8e2 f43c
000000e0: 49d7 bc3e 5cd8 0e3e e8fd 6d3e 9c8a 483e
000000f0: 6d09 6e3e 1090 d23d 0234 a33c e8e8 20be
00000100: 46c3 503d 1ba7 2c3e 3731 04be d1a8 003d
00000110: 3d22 1cbe 3b3e a2be cfeb c13d fbe4 dfbd
00000120: 562a 2ebe ad3b 76be a1af 2dbd 084b 6d3e
00000130: aabf d33d 03e3 d5bd b4f8 9bbe d556 123e
00000140: a20e 073e d663 563e db55 99be 2bbc c53d
00000150: 03a2 db3d 54d9 0ebe 4acb 3d3e 1f32 fc3b
00000160: 7146 4abe b1f2 033e f952 f4bd e9be 313e
00000170: d91a 223e 3368 5d3d 9ef1 50be b9a3 56bd
00000180: 8154 d5bd b7a0 7b3e 5b80 9fbd 477a bf3d
00000190: 18be 383e 1fb0 723e db48 363e 5d49 f7bd
000001a0: 3c79 80be 9f46 223d ebee 963e f2a5 103e
000001b0: 99aa a83c 29dd 8bbe b381 2a3e 999a a6bd
000001c0: c23f 9b3d 9d60 453e c51f 76bd 6f1d e3bd
000001d0: 293c ee3c ea09 e73d 08d6 b73d bde0 b13d
000001e0: 8a5c 29bd 5672 3c3e ce1e 693d c80e 17bd
000001f0: f29d 3c3e 48a0 05be 7fb0 77be df75 7dbe
00000200: f270 e5bd 53ce 383d 8611 a2be c609 21be
00000210: fb08 17bd 1760 da3d 38ae 3c3e 7334 73be
00000220: 82eb 90be d5f1 e4bd 1e29 15bc 27f8 b63e
00000230: e747 6ebe bb14 16be 351d 803e c0e8 b83e
00000240: e961 8e3e ac17 3a3c d415 61bd 0e6e 7b3e
00000250: c3a8 703e b3ed 623e 4881 183e c2e7 8a3d
00000260: 2931 333e fcb7 8bbe 1a8e 16be 0fb8 923e
00000270: d583 1f3e 0f2b e3bd cc30 78be 5800 aebe
00000280: 2fee 503e 82df d53e 8d53 283d ab99 9bbe
00000290: 29a0 8abe 8976 523e e21f 883e bb08 d93e
000002a0: 7cdd 813a bd4e 25be 2717 ac3d bf99 db3d
000002b0: 96e1 2f3e d86d 443e 440a 6c3e 8d42 493e
000002c0: 1e1f 953e eb59 a33e 9698 ab3e 0d26 153e
000002d0: 0ba1 d03d b987 5c3e 0bb1 c63e ce94 a83d
000002e0: 73bd a93e 31bf f3be 2889 87be f9b8 6b3c
000002f0: e362 4d3e e9d8 903d c736 b9be 3996 40be
00000300: 5fa5 90be 1b17 b6bd e678 b6bc 34ff 8dbe
00000310: 9197 8dbe 74d2 82be de00 0ebe 42e4 fd3d
00000320: 9c0b bc3e 62db 5a3e a07e 2fbe 245f 8cbd
00000330: b2a4 9fbc a414 d23e cfbe fa3c cf7d 87be
00000340: 9138 17be f802 36be b1d0 c83e fd2c a83d
00000350: 7dca 09be 449f 98be c6fe ddbd 6f58 1c3e
00000360: 9202 4a3c bd2b 15be cb23 1abc 668c 3abe
00000370: 51bf 853e 559f 3f3e d527 11be 6b2d c8bc
00000380: b533 5abe e668 633e 0ee9 213e 3833 143e
00000390: a57a 6fbe 9ede 543e 91bf bebd 2197 2abd
000003a0: a86f fd3d 2a04 3cbd e172 893e 16f3 59be
000003b0: 7b46 bf3d e5ec 9e3e e83e 663e 1a1a b33d
000003c0: bc95 4e3e cbd3 a13d ef84 93bd a627 6c3e
000003d0: ca27 4c3e 9b6e 7f3d 230d a43d 3767 1bbe
000003e0: ceb1 3ebe 4bdf 6fbe
0.24197961 -0.09737053 -0.11102337 -0.12368998 0.024663856 0.2704822 -0.10776763 -0.22745965
-0.101440236 -0.03222425 0.22539307 -0.19521381 -0.009453567 -0.04611461 -0.18605222 -0.024903031
-0.062372673 -0.2306677 -0.16137801 0.041075166 -0.065258965 -0.1357656 0.024255354 -0.17208433
0.02567393 0.12457739 -0.26752394 -0.08486387 -0.26526695 -0.31924218 -0.14685792 -0.44311118
-0.59794915 -0.21887642 -0.33191332 0.07836052 0.041961383 -0.0091431495 0.012214997 0.13949366
0.295171 0.40040728 0.2812892 0.38506532 0.2938211 0.2744089 0.1802859 0.38945466
0.03316057 0.19982652 0.14667846 0.17829327 0.1506992 0.3055373 -0.043844424 0.029893354
0.36883 0.13949722 0.23241389 0.19584125 0.23245783 0.10281384 0.01992226 -0.15713847
0.050967477 0.1686062 -0.12909399 0.031410996 -0.15247436 -0.31688103 0.09468805 -0.109323464
-0.17008337 -0.24046202 -0.04240382 0.23173153 0.103392914 -0.1044369 -0.30463183 0.14290936
0.13189176 0.20936522 -0.29948315 0.09655031 0.10724261 -0.13950092 0.1853458 0.0076964046
-0.19753434 0.12885548 -0.11929888 0.17357983 0.15830554 0.05405445 -0.2040467 -0.05240223
-0.104165085 0.24573027 -0.07788154 0.093494944 0.18041265 0.23699997 0.1780123 -0.1207454
-0.25092494 0.03961813 0.29479155 0.14125803 0.02058916 -0.2731717 0.16651039 -0.08134956
0.0758052 0.19275136 -0.06008889 -0.110895984 0.029081421 0.11281188 0.0897637 0.086854436
-0.041348018 0.1840299 0.056914143 -0.03687933 0.18419626 -0.13049424 -0.24188422 -0.24751996
-0.11203183 0.04511864 -0.31653994 -0.15726385 -0.0368738 0.10662859 0.18425834 -0.23750477
-0.28304678 -0.11178938 -0.009104041 0.357362 -0.23269616 -0.14656346 0.25022283 0.36115074
0.27809075 0.011358183 -0.054952458 0.24553701 0.23501877 0.22160988 0.14893067 0.067824855
0.17499222 -0.27288806 -0.14702645 0.2865605 0.15577634 -0.11092197 -0.24237365 -0.33984637
0.2040336 0.41772085 0.041095305 -0.30390677 -0.27075318 0.2055303 0.26586825 0.42389473
0.0009907926 -0.16143318 0.084028535 0.10722684 0.17175898 0.19182527 0.23050791 0.19654293
0.29125303 0.3190454 0.3351485 0.14565296 0.101869665 0.21536149 0.38806948 0.08231507
0.3315235 -0.47606805 -0.2647183 0.014387363 0.20057254 0.07072622 -0.36174604 -0.18807305
-0.28251168 -0.08891126 -0.022274446 -0.27733767 -0.27654698 -0.25551188 -0.13867518 0.12397052
0.36727607 0.2137275 -0.17138147 -0.06854084 -0.019487713 0.41031373 0.030608563 -0.26463172
-0.14767672 -0.1777457 0.3922172 0.08211706 -0.1345615 -0.2980901 -0.1083961 0.1526811
0.012329714 -0.14567466 -0.009407948 -0.1821762 0.26122525 0.18713124 -0.14175351 -0.02443572
-0.21308787 0.22207984 0.1581156 0.14472663 -0.23386629 0.20788047 -0.09313882 -0.041648034
0.12374812 -0.04590241 0.26845458 -0.21284136 0.09339615 0.3104011 0.22484934 0.08745213
0.20174307 0.079017244 -0.072030894 0.23062 0.19937053 0.06236134 0.08010318 -0.15176092
-0.18622515 -0.23425023

conv1.bias f4 [10]
00000000: f71b 98bd fe73 9b3e 06c3 8e3e 71d0 4e3d
00000010: 244e 50be 944b 31bc 7f21 dcbd 62e6 533c
00000020: 0917 3abe 5695 c03c
-0.07427209 0.30361933 0.27883166 0.050491754 -0.20342308 -0.010821242 -0.107485764 0.0129333455
-0.1817285 0.023508709

conv2.weight f4 [20, 10, 5, 5]
00000000: 2427 a1bb 720c 603d eded 1d3d e600 ccbb
00000010: c827 013d 42ad bd3c c610 d9bc 57b7 fabb
00000020: cfcc 0f3c 3215 76bd 4df2 793d 3291 75bc
00000030: eddf 943d 1c5f cd3b 5eaf aabd 619d ccbc
00000040: 225c ecbc fa06 593d 7d5c 863d 3385 babd
00000050: bc0e 7b3d ea0f 8ebc be09 063d b66f d1bb
00000060: 0978 4abd be63 31bd 6e35 babd 13db 2b3c
00000070: 1d09 8abd faf3 f4bd ad0b febc 55b8 16be
00000080: 7c5f 00be 84a2 52bd 6e5d 14be 76df 02bd
00000090: d146 22be 7abc eabd a083 bfbd 923b b0bd
000000a0: bbef 73bd 5d92 c8bd 6647 0bbe fb89 8d3b
000000b0: 86c4 583d eaa8 8f3d 2b4e 15bc e84c e1bc
000000c0: 6467 66bd 5810 c7bd 9e31 09bd 7281 47bb
000000d0: 4b98 97bd f7f2 9d3c ce34 fa3d 6ee1 2cbd
000000e0: 3292 c0bd 592d 7fbc d3ec 9f3d 3ba7 103d
000000f0: c563 9cb9 2fad 23bd 20a3 8abd 240d c43c
00000100: 2708 07bd 95f0 c0bd 2432 29bd 709c fb3c
00000110: 7924 123d eec7 da3b 6ee6 d4bd ab7f e0bd
00000120: 3e31 873a 5ebf 01bc 066c 0abc 3a58 e43c
00000130: 2377 c4bd 171c ae3c f49a 9b3d 799f 7dbd
00000140: 74e3 6d3d 142b 75bd c19d 573d bda0 9ebc
00000150: 25c9 87bc 6d8b d73c 2b25 03bd 76fa f03b
00000160: 0518 9a3d 2def 543c e1f7 49bc 07b2 febd
00000170: 790b 3f3d 460e 983d 3033 ae3c f69f bb3c
00000180: 55ab 39bd 2e7d 75bc 5e2e 8abb ac75 2cbd
00000190: 5747 e23c 53ff 02bc 4b2e 51bd 671d 16bc
000001a0: e41a 3fbd ddde c1bc a41f c5bc 04e0 9fbb
000001b0: 9f5b c03c 79f9 a93d 80c4 643c e77c dbbc
000001c0: 15c9 b63d e38e 813c 1b98 a8ba 39d2 44bd
000001d0: ad6c b7bd fc46 7c3d 906c e53c 25cd 213d
000001e0: 4940 da3a 6968 423c 5f66 57bd 16dd 473c
000001f0: 1a56 7d3c 2d48 b1bc c19d 89bd 71df 463d
00000200: acec a43d 5dda e63c ed0c 77bd 2af7 933d
00000210: 1f63 80ba a4a9 863b 900d 3bbd 49ac 0e3b
00000220: 71b2 f63c e871 5c3d d354 8c3c 2b84 dbbd
00000230: 7a41 3c3d 21a6 893d 17bc e1bc 589c 7cbd
00000240: 949e e7bd 73cd 703d 7c99 af3d c999 8f3c
00000250: 0b2a 623c f33f 0dbd c3d6 8b3c d2ec 23be
00000260: 167b debd 52e5 433d 607e 263d 6ec7 c23c
00000270: f48b 34be dc65 76bd 01f0 ea3d 3bf1 9a3d
00000280: 4b54 673b ee24 f8bd 1be5 a33d 7ac2 083e
00000290: 72e0 4e3c c92b b6bd d997 833c f38e 893d
000002a0: bf9e bb3d 646b d33c b3ad 193e 2c10 f33d
000002b0: 428d 4f3d 7ec9 bbbc 313d 24bd 6584 6abd
000002c0: da28 d83c c367 c6bd f357 04be 3503 84bd
000002d0: da19 283d 7e99 443d 8e7a 90bd bf6b 44bc
000002e0: dbfa 94bd 4b95 89bd f170 163d 7a00 58bd
000002f0: a4f5 e63c 32f0 fabc f2d1 b5bd 4602 2cbc
00000300: a490 a0bb 7942 a33d 2882 563d 3221 30be
00000310: 6015 86bd a584 033d e80e 1a3d 5878 95bc
00000320: 1f51 a3bc 91a3 e1bd 0d89 353b c5dc fe3d
00000330: 4eec 6a3d 1afa 003d a80c 3bbc 9948 d63c
00000340: d287 fa3d 7205 de3c cd28 283d d5ab 25bd
00000350: 650d 5f3d 055b 103e 0c87 d83d dbca 2abd
00000360: 2257 77bc 44da 8c3d a14e b33d c151 3c3d
00000370: 4972 213c 0785 91bc b0f9 2fbc f5ef 1c3c
00000380: 6524 b43d 6bae 8fbd b05b 85bd ea51 68bc
00000390: 120e 903c c18e 993d dde2 c2bc e395 bfbc
000003a0: ddd6 213d 32f8 6ebb 1667 34bd 09e4 80bc
000003b0: 17de 97bb 8fd8 ae3c 8b44 c1bc 1bed 10bd
000003c0: 011b b0bc d14d babb da95 fd3c 8e9a 07bd
000003d0: 6d42 b7bc 7d6e 0cbe 9ce7 8abd 75d8 adbd
000003e0: bab8 01bd 3097 b8bc 835d 873d d891 24bd
000003f0: 2f9b f63b b3d1 3d3d e616 623d 7fbd 653c
-0.004917996 0.05469937 0.03855698 -0.006225693 0.03153208 0.023153905 -0.026497256 -0.0076512503
0.0087768575 -0.060078807 0.06102209 -0.014988231 0.07269273 0.0062674414 -0.0833423 -0.024977388
-0.028852526 0.05298517 0.065606095 -0.09107437 0.06129335 -0.017341573 0.032724135 -0.006391491
-0.04943088 -0.043308012 -0.09092222 0.010489243 -0.067400195 -0.11960597 -0.031011427 -0.14718755
-0.12536424 -0.05142452 -0.14488766 -0.03195139 -0.15847327 -0.1146173 -0.09351277 -0.08605112
-0.059554797 -0.097935416 -0.13601455 0.004319427 0.052921794 0.0701464 -0.009112875 -0.027502492
-0.056250945 -0.09719914 -0.033494584 -0.0030442146 -0.074020945 0.019280894 0.12217103 -0.042207174
-0.094028845 -0.015574777 0.078088425 0.035315733 -0.00029828973 -0.039960083 -0.06769395 0.023932047
-0.03296676 -0.094208874 -0.041307583 0.030714244 0.035679314 0.0066766655 -0.103955135 -0.10961851
0.0010314358 -0.007919161 -0.008448606 0.027874101 -0.09593036 0.021253629 0.07597914 -0.061919663
0.058078244 -0.059855536 0.05264068 -0.019363755 -0.016575405 0.0263116 -0.032017868 0.007354076
0.075241126 0.012996477 -0.012327165 -0.124363 0.0466418 0.074245974 0.021264642 0.022903424
-0.04532941 -0.014983458 -0.004216953 -0.04210441 0.027621908 -0.007995444 -0.05106954 -0.0091622835
-0.046656504 -0.02366584 -0.024062939 -0.0048789997 0.023481188 0.08299536 0.013962865 -0.026792957
0.08925072 0.015815204 -0.0012862714 -0.048052046 -0.08956275 0.061591133 0.028005868 0.03950228
0.0016651239 0.011865714 -0.052587863 0.012198707 0.015462423 -0.021640861 -0.06719542 0.048552934
0.08052954 0.028180296 -0.06031506 0.07224877 -0.0009795165 0.004109578 -0.04566723 0.002177017
0.030114384 0.053819567 0.017130291 -0.107185684 0.04596088 0.0672114 -0.027555509 -0.06167254
-0.11309543 0.05878968 0.08574197 0.017529385 0.013803969 -0.034484815 0.01707018 -0.16008309
-0.108633205 0.04782612 0.040647864 0.023776736 -0.17631513 -0.060155734 0.11471558 0.07565542
0.0035298045 -0.12116419 0.08002683 0.13355437 0.012626754 -0.0889507 0.016063618 0.067167185
0.09161138 0.025808044 0.15007667 0.11868319 0.050671823 -0.022923227 -0.04009742 -0.057255168
0.026386667 -0.0968776 -0.12924175 -0.06445924 0.04104028 0.047997944 -0.070546255 -0.011988579
-0.072744094 -0.067179285 0.036728803 -0.05273483 0.028193302 -0.030632112 -0.088779345 -0.010498589
-0.004900055 0.07971663 0.05237022 -0.17200163 -0.06547046 0.03210892 0.037611872 -0.018245861
-0.019936142 -0.11017526 0.0027700097 0.12444452 0.057354264 0.031488515 -0.011416592 0.026157664
0.12232937 0.027102206 0.041054536 -0.040447075 0.054456133 0.14097221 0.10572633 -0.041697364
-0.015096458 0.06877568 0.08755232 0.045976404 0.009853908 -0.017763628 -0.0107406825 0.009578695
0.08796004 -0.070156895 -0.06511629 -0.014179686 0.017584834 0.07497931 -0.023789817 -0.023386901
0.03951155 -0.0036463854 -0.044043623 -0.015733736 -0.0046346295 0.021343498 -0.023592254 -0.03538237
-0.021497251 -0.005685546 0.030955244 -0.03310638 -0.022370541 -0.13714023 -0.06782457 -0.084885515
-0.03167031 -0.02253303 0.06609633 -0.04017815 0.0075258235 0.046342563 0.05519762 0.01402223

conv2.bias f4 [20]
00000000: 632e 683b d61d 30bd 7c16 243d 327d ca3c
00000010: 2db0 90bc fd38 a13b 9e07 20bd 279b 94bc
00000020: 25c7 093d 6dc2 14bd 8106 72bd cb43 60bd
00000030: c725 7fbd bf61 49bc 8df9 adbb 840a d13c
00000040: 9784 253d 3f59 0cbd 4789 2dbd f9df 123b
0.003542804 -0.042997204 0.040060505 0.0247179 -0.017662132 0.0049201236 -0.039069764 -0.018140389
0.033637185 -0.03631823 -0.059088234 -0.054752152 -0.062291887 -0.012291371 -0.00530929 0.02551771
0.04040965 -0.0342648 -0.042367246 0.002241133

fc1.weight f4 [50, 320]
00000000: c4d9 54bb fca0 cb3b 5a9e 5c3d 455b 913d
00000010: 8ba7 5dbd 4e81 cfbb 11d0 5dbd e69c dc3d
00000020: 6390 3d3d ef91 debc 3481 a3bd 4d3e 863d
00000030: e8d5 0c3d 2188 3439 45b5 97bc dd14 813d
00000040: d66c 6d3d 0686 6bbd ae5e c5bc 0974 323c
00000050: 4f7f 133d e1ac c73b 92b4 85bc c736 c3bc
00000060: a8bd 78bd 8d75 123d 72dc 103c 63e7 253d
00000070: ea8b 81bd 05f9 80bd 2b8c 43bc 7894 14bd
00000080: 05d0 033d 3f80 1b3d 6c6c adbc 544a 59bd
00000090: 9e5a 67bd fcd0 21bd b7d3 b4bb e625 bebd
000000a0: d9b3 67bd 6673 113d bb61 26ba 16aa 43bd
000000b0: afa8 19ba a699 9a3d 6a29 19bd 754c b43d
000000c0: c138 31bd 339e 6d3d c0e2 593c 040e 783c
000000d0: e457 3c3d f720 c13c 0157 af3c 3b11 543b
000000e0: 312d 0d3d 2837 d83c 4eda 2dbd a351 21bd
000000f0: f871 bbbc 66c4 1e3d b41f 7dbd 9d07 c1bc
00000100: aee2 163d 167b c03b ae0a 8a3c d5d7 803c
00000110: 7112 683d 9a70 573c bfda 88bd 2341 f8bb
00000120: 6530 6c3d 80f7 9c3c c0d3 443b 6de5 d23d
00000130: d1d4 cdbd 6a2c 41bd 3f9e b5bd 9110 d8bc
00000140: 9262 aebc 574f e7bb 6d10 1fbd 1bce 5fbd
00000150: 7eb4 92bd a7fd 8ebd bd44 7cbd 54e3 b2bd
00000160: 8966 bd3c 26a7 e03c f0ac 7abd 3e8d e73c
00000170: 12de aa3d 9482 f83c 5cc9 cc3b 5d4e ae3d
00000180: 3ed9 11bc ebf8 cc3c af78 4c3d da38 4cbc
00000190: cca8 ebbc 0a85 f33b 2de8 b2bc e1b9 73bd
000001a0: 55c8 3b3b b3e0 34bc 4f84 adbd 0d67 ed3c
000001b0: 28cc a83d 0a51 4abb 4b07 98bc 1666 833d
000001c0: adfd a03d 5e0c 92bc 7cee c33b bcbe fdbb
000001d0: f91b 23bb 3290 143d 61f2 c3bd a52b 20bd
000001e0: 75fa c5bc ae67 26bd 3906 dd3c 1e87 043d
000001f0: 0435 b13d c9ab b1bb aa51 be3c 20fc 7bbc
00000200: 6020 51bd b433 413d 26e5 dd3c bc7a a03d
00000210: 6b28 b4bd 65b1 85bd 3fab 22bd a16a 8c3d
00000220: c6bf fd39 7282 9abd 9790 a3bd ea02 6e3b
00000230: 3762 5e3d e171 fe3c cf15 773c 529c a03d
00000240: 163d 51bd 73f1 02bd 7862 b6bd 5ec6 e33a
00000250: 17d7 b43c 7e7c b83c 61b7 2f3d 3425 38bd
00000260: 79c5 81bc abc9 cc3c f287 4e3c a8c6 dc3b
00000270: 6ebd 97bc e2c3 9dba f8d7 06bc ed54 d93b
00000280: 1585 753d 4c43 dbbc 4c25 6e3c 8ce9 79bd
00000290: 38aa 8fbc 3452 553d 12fe be3b 96a2 ffbd
000002a0: af20 7abb 119b c63a 658a 34bd 0ad8 5cbd
000002b0: 45fc 5a3d ba51 f33c 6564 353c c239 833d
000002c0: 0c36 b9bc fda0 b7bd b174 8abd 77a8 b13d
000002d0: 32a8 413b 51c9 ef3a 9b69 02be 30cf b53c
000002e0: 2118 fc3b 9461 6d3c 5f83 40bd 2601 983d
000002f0: c709 b13c c287 603c f09a b5bc 31e1 bc3c
00000300: 768c 7e3c afc8 a4bc c4cd 093c 57da a1bc
00000310: 1b2e 88bc 401a 123d 2751 85bd 9a7b c73c
00000320: 2d66 b9bc fb77 a63d 031c 0f3d a45b abbc
00000330: 22dd 47bd 3fce 693d c1da 37bc ffe9 6dbc
00000340: d988 fc3b 38c9 20ba 08ba 1abd 9437 51bd
00000350: 627b a23d cc89 003a c81d 61bd 330a 88bc
00000360: 3c9c 91bb 5a36 afb8 69af 9d3d 9f29 1e3d
00000370: 2910 42bd 42a2 94bd 2625 ebbc c944 1f3d
00000380: 8ba1 36bd e7c1 31bd 69be 08bd 2c48 2dbd
00000390: de10 08bc 27bf 2f3a 93d0 9fbd 214d e6bd
000003a0: 44dd 1a3d e8b1 3f3d 21c2 c53a 4aee 0bbc
000003b0: 866e f03c 2647 4f3d 2054 e1bb b521 c23d
000003c0: ce8e 5abc 4e52 2fbd 6a11 0ebd e84f c0bb
000003d0: f2d2 babd 0af3 0dbe 6eb5 b83c 01f8 74bc
000003e0: 1753 37bc 7d75 29bc ae4b c13c ceaa b8bc
000003f0: 22e9 533d 67d7 b83c cd1b 043d 4c41 743d
-0.0032478431 0.006214259 0.053861953 0.070974864 -0.05411486 -0.006332553 -0.054153506 0.107721135
0.046280276 -0.027169196 -0.07983628 0.06554852 0.034383684 0.0001721685 -0.018519053 0.063028075
0.057965122 -0.05750086 -0.024092998 0.010891923 0.036010083 0.006093607 -0.016321454 -0.02382983
-0.060727745 0.035756636 0.008841621 0.04050387 -0.063255146 -0.06297497 -0.011935274 -0.036274403
0.032180805 0.037964102 -0.021169864 -0.0530494 -0.056482904 -0.039505944 -0.0055184024 -0.09284572
-0.056568 0.035510443 -0.00063469604 -0.04776963 -0.00058616226 0.07548837 -0.03739301 0.088036455
-0.043267015 0.0580122 0.01329869 0.01514006 0.045982257 0.02357529 0.021403791 0.0032358903
0.034466926 0.026393488 -0.04244452 -0.039384495 -0.022881493 0.03876152 -0.061797813 -0.0235632
0.036837272 0.005874048 0.016850796 0.015727917 0.056658212 0.013149405 -0.066823475 -0.0075761243
0.05766334 0.019160986 0.003003344 0.10297666 -0.10050357 -0.047161497 -0.08868074 -0.026375087
-0.021287236 -0.0070590186 -0.038834024 -0.054639917 -0.071633324 -0.06981974 -0.06158899 -0.08734766
0.023120182 0.027423453 -0.061200082 0.028265592 0.08343138 0.030335702 0.00624959 0.0851104
-0.008901892 0.025021037 0.04991978 -0.012464726 -0.028767012 0.007431631 -0.021839226 -0.05950344
0.0028653343 -0.011039901 -0.084725015 0.028979803 0.08242065 -0.0030871057 -0.018558165 0.06415956
0.07860885 -0.017828163 0.0059793573 -0.0077436846 -0.00248885 0.036270328 -0.095677145 -0.039104123
-0.024167279 -0.04062622 0.026980506 0.03235542 0.0865269 -0.0054220897 0.0232323 -0.0153799355
-0.051056266 0.04716845 0.027086806 0.0783591 -0.087967716 -0.06527976 -0.039714094 0.06856275
0.00048398803 -0.07544412 -0.07986563 0.0036317655 0.054292884 0.031060161 0.015080883 0.07842316
-0.051083647 -0.031968545 -0.089055 0.0017377844 0.02207522 0.0225203 0.042899493 -0.044957355
-0.015841233 0.024998507 0.012605654 0.006737549 -0.018522944 -0.0012036527 -0.008230202 0.0066324384
0.05994137 -0.026765488 0.014535259 -0.061013743 -0.017537221 0.052080348 0.0058286274 -0.12482183
-0.0038166454 0.0015152415 -0.044077296 -0.05391697 0.05346324 0.029702056 0.011071299 0.06407501
-0.02260878 -0.08966253 -0.06760538 0.0867471 0.0029549715 0.001829425 -0.12735598 0.022193521
0.007693306 0.0144885965 -0.047000285 0.07422094 0.021611108 0.013704242 -0.022168607 0.023056598
0.015536418 -0.020115225 0.008410875 -0.019757433 -0.016623547 0.035669565 -0.06509619 0.02435093
-0.022631729 0.08128353 0.034938823 -0.020917721 -0.048794873 0.057081457 -0.011221589 -0.014521121
0.007706743 -0.00061334996 -0.03777507 -0.051078394 0.0793369 0.0004903346 -0.054960042 -0.016606426
-0.0044436734 -8.354774e-05 0.076994725 0.03861391 -0.047378693 -0.07257511 -0.028704237 0.038883958
-0.044587653 -0.04339781 -0.033384714 -0.042305157 -0.008304803 0.0006704204 -0.07803454 -0.1124518
0.03780867 0.046800524 0.0015087762 -0.008540699 0.029349577 0.05060496 -0.0068764836 0.09479085
-0.013339711 -0.0428031 -0.034684576 -0.0058689006 -0.09122266 -0.13862243 0.02254745 -0.014951707
-0.011189244 -0.010342953 0.023595657 -0.022542384 0.051736005 0.02256365 0.032253075 0.059632584

fc1.bias f4 [50]
00000000: fccc 453d 9fb5 8cbd 3875 bf3d 813d 303a
00000010: d887 883d ae87 2e3d 0d02 7e3d 52f2 8c3d
00000020: 3980 c5bc d5a6 2f3d 9db3 18bd e2fd 883d
00000030: a795 f9bc 04d3 d33c 41aa 7d3d 62f5 193d
00000040: 53ea 313d d993 423d 8106 1b3d 759d c83b
00000050: f808 a63d 551b 2fbd bb8c 043d b016 22bd
00000060: 3a93 833d 60ce d5bc f690 58bb 3a1d bf3c
00000070: db81 a13c 6907 28bc 02e1 a33c ba4d 9b3d
00000080: 9b5d e0bc e003 6b3d d857 6c3c 7f14 503c
00000090: 65f3 903c 7383 42bc 2cde 063c d066 213c
000000a0: b97c 903d 214a 1b3d 0cc6 1f3d 494e 1d3d
000000b0: b1aa af3d 1bfd ac3d a11e 1f3d 6a1e 463c
000000c0: 6167 cc3a 51de 31bd
0.04829119 -0.06870579 0.093485296 0.0006723032 0.06666535 0.042609863 0.062013675 0.068821564
-0.024108993 0.042883713 -0.037280668 0.06689049 -0.030466868 0.025857456 0.061929945 0.03758753
0.04343636 0.04750428 0.037848 0.006122286 0.081071794 -0.042750675 0.032360774 -0.039572418
0.064245656 -0.026099384 -0.0033045388 0.023329366 0.01971524 -0.010255673 0.020004753 0.075831845
-0.027388385 0.057376742 0.01442524 0.012700199 0.017694185 -0.01187216 0.008231681 0.009851173
0.07055039 0.03791249 0.03900723 0.038404737 0.08577479 0.084467135 0.03884757 0.012092212
0.0015594774 -0.043424908

fc2.weight f4 [10, 50]
00000000: 7ef3 fc3d 22b6 16be e464 acbd 044e 3d3e
00000010: 2bf8 2ebe 582b 89bd 9dbd 703e 3f7c 45be
00000020: 89a3 c5bb c1f9 4fbe c8e7 51be 05bf bfbc
00000030: 8727 3bbe 1975 49be 4ff7 5dbe b0df 0fbe
00000040: f33b 843d f6d7 683d 5568 3bbe a35f aebd
00000050: 2d74 3abe 9ca7 48be 7376 24be f33c f8ba
00000060: 06ea 32be f580 633e 799a 9dbc d02c ec3d
00000070: 82c9 123e 1bb4 4d3e 1c8b 27be c3f2 353e
00000080: 7b89 6b3e 4107 623e 31fc 313e 4cbe 0bbe
00000090: 182a a4be ee8f 94be 7d83 6a3e bf3b 3dbd
000000a0: f942 6fbe 80b4 cf3d 8ed4 6c3e 010e 7cbc
000000b0: 0eb8 08be 2013 4cbe ab9a 4c3e 5d9f 073e
000000c0: 4e34 93bd a279 a1bd 35db 63be 1caa 39be
000000d0: 9ab9 163e 7419 13be 3998 623e a28c a13e
000000e0: b0bf 12be 67b8 773e c38a a7bd 4305 7cbe
000000f0: a9c9 6e3e 2ebf 4e3e 2946 2abe 5b1c 3b3e
00000100: a6e3 7cbe e2f4 2ebe e630 513d 950e 6dbe
00000110: 972e 853e e886 083e 0d49 463e 59b8 81bd
00000120: 97fb 243e 97d3 17be 62d7 dd3d d6c7 1ebe
00000130: ba17 373e f7ba 53be d3a5 36be fc53 3d3c
00000140: e293 ca3d 02e7 103e 4e19 24be 7600 a7bd
00000150: ad36 44be 0efd fdbd 57be 883d 5345 6bbe
00000160: 38b0 393e 257f ad3d 7df8 5f3e 149c 88be
00000170: 1cbb 2ebd 5a91 613e 581f 803e ae89 823e
00000180: 44f0 92be 1cb5 1fbd 466d 38be ca5f a2bd
00000190: f4c8 843d e86a d3bc 8969 9fbb ab7d 45be
000001a0: f145 413d f61f 763d 8038 ac3d 0bdb e4bd
000001b0: 107a 183e 9d3a 41bc f832 b9bd f169 3b3e
000001c0: 27a7 54bd 9c16 2cbe 0819 6a3d 2e85 273e
000001d0: a97f 2f3e 21fe 32be dc86 7e3e a4c3 023e
000001e0: bb6e 493e baf9 553e 44f6 5d3e 0c2b dabd
000001f0: 004d 223e 7bd2 303e ebbc 6abe 3e7f e03d
00000200: 8056 4cbd 42bd 41be ef38 243e a657 153e
00000210: 89a3 a5bd 801b 6ebe e904 78bd a027 333e
00000220: 92e0 92be f40b 10bd 32e7 323e 4d27 efbd
00000230: dd28 48be 7690 11be 8708 2b3e 57b3 df3c
00000240: c639 383d 1933 20be 8337 3bbe 0e9d 263e
00000250: 85e6 893d 0917 edbd 9b5c 65be 6dfd 143e
00000260: f4b4 93be dc9d 32be 3dad 28be e668 e2bd
00000270: 847b 633e 97f2 f7bc 1a32 6d3e c0ef 05be
00000280: 468b 6c3e 5f8a 13be 01bf eb3d edfb 763e
00000290: b793 3fbd 23c9 cb3c 5576 0c3e a595 debd
000002a0: 8922 bfbd 3694 49be 20ec 2d3e ee76 003e
000002b0: df38 243e 3ec8 b9bd 8c95 193e 9753 ad3d
000002c0: 4ec9 b03d e91d 043e f0cf 0b3e 332e 63be
000002d0: ae83 123e adab c3bd 6a4b b4bd 6ecf c2bd
000002e0: 5c34 cdbd 0340 dabd bd7b f43d bb0f 213e
000002f0: 94a1 f4bd ae46 f43d 2419 adbd 8070 773e
00000300: 4f4c 04be 78c2 a1bd 6a6a 33be f73e 843e
00000310: 671e cfbd f701 423e f6ca 0cbe 4431 1f3c
00000320: ccdd cb3d 796a 93be 9c44 f23d 783f 2d3e
00000330: 6e9c 863d d96f b9bc 1975 32be ec3d 6c3e
00000340: 5260 073e 0370 573e 8b34 31bd 7861 383e
00000350: 979f 353d ce1c 1cbe d3f7 903e 1ed6 373e
00000360: 0c9a bfbd f6ef e43d 3c08 cbbd dbb2 2b3e
00000370: 2a77 2a3e 0e2d 20be c708 2ebd 7abe 1d3e
00000380: dd0e 31be 3559 173e 7dcb 3fbe 8962 cabe
00000390: e912 29be 6199 b6bd c18e 6abe 70a0 3fbe
000003a0: 1951 0fbe 172c 35be b132 83be 06da e73d
000003b0: 41ea 033e 6da9 213e 1a09 26be 0075 bf3d
000003c0: bd59 483e a6a0 1e3e c44d 0dbd 2be0 893e
000003d0: 9fcb 493e 03c8 fa3b 2dce b83d 055a 10be
000003e0: d4be a93e 659b b7bd f892 5fbe 3b96 373e
000003f0: 32e7 8cbd 07fe e13d 33f8 04be 7301 e5bd
0.1235113 -0.14717916 -0.08417681 0.18486792 -0.17086856 -0.0669772 0.23509832 -0.19285677
-0.006031458 -0.20310117 -0.20498574 -0.023406515 -0.18276797 -0.19673575 -0.21676372 -0.14050174
0.06456747 0.05684658 -0.18301518 -0.08514335 -0.1820838 -0.19595188 -0.1606081 -0.0018939063
-0.17472085 0.22217162 -0.019238697 0.11531985 0.14334682 0.20088236 -0.1636166 0.17768387
0.23001663 0.2207308 0.1738136 -0.13646811 -0.32063365 -0.2901606 0.22901721 -0.046199556
-0.23365392 0.101418495 0.23127958 -0.015384198 -0.13351461 -0.1992917 0.19980876 0.13244386
-0.07187711 -0.07884528 -0.2225159 -0.18131298 0.14719239 -0.14365178 0.22128381 0.31552607
-0.14330935 0.24191438 -0.081807636 -0.24611382 0.23319115 0.20190117 -0.16628326 0.18272536
-0.24696216 -0.17085603 0.051072024 -0.23150094 0.26012108 0.13332713 0.19363804 -0.0633399
0.16111599 -0.14826809 0.10832097 -0.15505919 0.17880145 -0.2067679 -0.17836694 0.011555668
0.09891488 0.14150622 -0.16025278 -0.08154385 -0.19161482 -0.12401782 0.066769294 -0.22975664
0.18133628 0.084715165 0.21872135 -0.26681578 -0.04265891 0.22028103 0.25023913 0.25495666
-0.28698933 -0.03899108 -0.18010435 -0.079284266 0.06483641 -0.025807813 -0.0048648757 -0.1928622
0.047185842 0.060089074 0.08409214 -0.11174592 0.14890313 -0.01179376 -0.09042925 0.18302132
-0.05191722 -0.168055 0.057152778 0.16359398 0.17138542 -0.17479755 0.24856132 0.12769943
0.19671147 0.20896044 0.21675974 -0.10652742 0.15849686 0.17267792 -0.22923629 0.109617695
-0.04988718 -0.18919852 0.16037343 0.14584216 -0.080878325 -0.23252678 -0.060551558 0.17495584
-0.2868696 -0.03516765 0.17471007 -0.11677418 -0.19546838 -0.14215264 0.16702472 0.027307196
0.044976972 -0.15644492 -0.18282895 0.16270849 0.06733421 -0.11576659 -0.22398607 0.145498
-0.28848994 -0.17443031 -0.16472335 -0.11055164 0.22215086 -0.030267043 0.23163643 -0.13079739
0.23100004 -0.14408253 0.115110405 0.2411954 -0.04677173 0.024876183 0.13717015 -0.10868386
-0.09332759 -0.19685444 0.16984606 0.12545368 0.1603732 -0.09071396 0.14998454 0.08463209
0.08632146 0.12902035 0.1365354 -0.22185592 0.14308044 -0.09554229 -0.088034466 -0.0951222
-0.100197524 -0.106567405 0.11937664 0.15728657 -0.11944881 0.119275436 -0.08452061 0.24164009
-0.12919734 -0.0789842 -0.17521062 0.25829288 -0.10113221 0.18946062 -0.13749298 0.009716336
0.09954414 -0.2879217 0.118294924 0.16918743 0.06572805 -0.02263634 -0.17427482 0.23070496
0.13220337 0.21038823 -0.043263 0.18005931 0.04434165 -0.15245363 0.28314075 0.17952773
-0.09355554 0.111785814 -0.0991368 0.16767447 0.1664702 -0.15642187 -0.04248884 0.15404692
-0.17290826 0.14780124 -0.18729968 -0.395283 -0.1651112 -0.089159735 -0.22906019 -0.18713546
-0.1399578 -0.176926 -0.25624612 0.113208815 0.1288233 0.15787287 -0.1621441 0.09348488
0.19565482 0.1549097 -0.03449799 0.2692884 0.19706582 0.007653238 0.090237 -0.1409684
0.33153403 -0.08965186 -0.21833408 0.17928402 -0.068800345 0.1103478 -0.12985305 -0.11181917

fc2.bias f4 [10]
00000000: be16 153e 060b 843e 71db a7bd 4fb0 ffbd
00000010: c642 8cbe 6485 e3bd c651 6ebb 5a0c d7bc
00000020: ba00 6c3e 6160 513e
0.14559457 0.2578966 -0.08196152 -0.124848 -0.27394694 -0.111094266 -0.0036364659 -0.026251007
0.23047152 0.20446922
